model/models/mlp.pth (torch, 855734 bytes, 31 tensors)

hidden1.weight f4 [100, 37]
-0.12223349 -0.08545522 -0.12606661 -0.037597783 -0.04562265 0.14831905 0.033094753 -0.15044531
0.06541355 0.0007497822 -0.13511403 -0.008359673 0.13635628 0.052073967 -0.073857315 -0.062242113
0.13559918 -0.11918403 -0.060738534 0.10115724 -0.02749245 -0.027086673 -0.12791118 -0.015341504
-0.03100531 -0.12992284 -0.09055902 0.13345404 -0.1475521 0.058628343 0.12311577 0.04180488
0.14330116 0.013649121 0.12512775 0.15581828 -0.046238106 -0.06963871 0.03442689 0.080635615
-0.08525786 -0.025834609 0.16358979 0.1164537 -0.14935406 0.0761312 -0.10410868 -0.06929274
-0.037294026 0.11451741 -0.054755706 -0.042057596 0.12104517 -0.15018176 -0.15240066 0.014730589
0.073674306 0.07581292 0.07467844 0.07302075 0.08361816 0.019912032 -0.122155085 -0.08366869
0.12251635 0.05773762 -0.14158414 -0.06650041 0.030698787 -0.00036973308 0.014816829 0.07337109
0.06278824 -0.019177532 -0.05805617 -0.034135364 0.043428015 0.07072129 0.00308419 -0.06429166
-0.15122795 -0.09550451 0.09671709 -0.04348686 0.092642486 0.052380107 0.0323398 -0.13714282
-0.14635174 -0.12365848 0.007702179 -0.11266679 -0.103695974 0.10048748 0.003920249 -0.07120982
-0.122215115 -0.012081342 -0.09702266 -0.11493141 -0.014988047 0.0024044951 -0.03248416 0.082714245
0.047702093 0.061110232 0.10772421 0.004821809 -0.003339062 -0.023544272 0.1073528 0.12773299
-0.054041572 0.07038634 -0.07177633 -0.019658437 -0.07831217 0.12868397 -0.14082503 0.020846695
-0.066774555 0.07220257 -0.0383289 0.07429225 0.077129915 0.008451193 -0.1418869 0.08896123
0.04452154 0.0036078452 -0.09300571 -0.101040214 -0.090363376 0.11301036 0.056307457 -0.08235241
-0.04207618 -0.058686074 0.06612157 0.10873318 0.06805585 -0.14374138 -0.0888923 0.0002483274
0.1547156 0.15537903 -0.10026485 0.08152941 0.13795626 0.029638788 0.06262052 0.04784177
-0.09147088 -0.13014314 -0.10058341 0.026991284 -0.10550242 0.07606085 -0.013466569 0.011148429
-0.12784697 -0.07373468 0.09287362 -0.16022357 0.09835418 0.14983584 -0.05404523 -0.0014047223
0.10718971 -0.001681678 -0.06096929 0.13083081 0.122608125 -0.12965535 0.04404529 -0.12470501
0.10524485 -0.08850982 0.14152268 0.08311706 0.09063529 -0.063451484 0.11786389 0.099980436
0.09579345 0.0338795 0.12743749 0.04605958 -0.09608272 -0.12950908 -0.16434157 -0.12100396
0.06281731 -0.06750969 0.13127123 0.11992171 0.14742783 0.14385508 0.04052306 0.12105925
-0.13955685 -0.11309979 -0.1408686 0.13518676 -0.0920855 0.08045713 0.1227757 0.14711961
0.075744405 -0.08800915 0.043758497 0.12725633 -0.0026428318 0.065013565 0.1344997 0.08712302
-0.07887369 -0.031558096 -0.10215373 0.14048064 -0.110019766 -0.096204825 0.05765304 -0.008238592
-0.13020824 0.04451707 0.021545358 -0.15217587 -0.14647733 -0.071128316 -0.0054322146 0.11251856
-0.042092405 0.13481809 -0.11597375 -0.06726217 0.04342878 0.0009820249 -0.06540591 0.007313151
-0.12423501 -0.072782926 -0.036520746 -0.10153141 0.023853566 -0.02632403 0.07817352 -0.04384402
0.15311933 -0.045405462 -0.15386207 0.063075334 -0.16153283 -0.009278709 -0.10464918 -0.031255838
00000000: 8d55 fabd 2503 afbd 9b17 01be 2200 1abd
00000010: d1de 3abd f3e0 173e 5d8e 073d 560e 1abe
00000020: 8af7 853d 088d 443a 555b 0abe 03f7 08bc
00000030: fba0 0b3e 834b 553d 8142 97bd 96f1 7ebd
00000040: 83da 0a3e c216 f4bd f8c8 78bd 872b cf3d
00000050: d937 e1bc dfe4 ddbc 26fb 02be ee5a 7bbc
00000060: d9fe fdbc 7e0a 05be 0277 b9bd 2da8 083e
00000070: e617 17be 4624 703d 1f24 fc3d 983b 2b3d
00000080: 8abd 123e 90a0 5f3c 7d21 003e d48e 1f3e
00000090: 2b64 3dbd bd9e 8ebd 3603 0d3d 4924 a53d
000000a0: ac9b aebd 1aa3 d3bc 1584 273e 477f ee3d
000000b0: 45f0 18be adea 9b3d ee36 d5bd 5ae9 8dbd
000000c0: 9fc1 18bd 1b88 ea3d 8547 60bd 9644 2cbd
000000d0: 88e6 f73d 3fc9 19be eb0e 1cbe 9258 713c
000000e0: 8ee2 963d ce43 9b3d 03f1 983d e78b 953d
000000f0: ff3f ab3d 8f1e a33c 722c fabd 7d5a abbd
00000100: dae9 fa3d 487e 6c3d 6ffb 10be 5e31 88bd
00000110: 067c fb3c bcd8 c1b9 49c2 723c 9543 963d
00000120: 1f97 803d 331a 9dbc 4ecc 6dbd 86d1 0bbd
00000130: 93e1 313d 53d6 903d 1f20 4a3b 59ab 83bd
00000140: 80db 1abe de97 c3bd 9c13 c63d 471f 32bd
00000150: 58bb bd3d 868c 563d bd76 043d 2b6f 0cbe
00000160: 3bdd 15be a840 fdbd 8f62 fc3b d9bd e6bd
00000170: 8e5e d4bd 61cc cd3d 6f75 803b 74d6 91bd
00000180: eb4b fabd d2f0 45bc d1b3 c6bd 2961 ebbd
00000190: 6d90 75bc bc94 1d3b 1c0e 05bd 1666 a93d
000001a0: 4563 433d b94e 7a3d 839e dc3d 4400 9e3b
000001b0: 2ad4 5abb ebdf c0bc c9db db3d 70cc 023e
000001c0: b25a 5dbd b726 903d 78ff 92bd bb0a a1bc
000001d0: 2262 a0bd bbc5 033e 7034 10be b0c6 aa3c
000001e0: 19c1 88bd f1de 933d c4fe 1cbd 8926 983d
000001f0: 4af6 9d3d df76 0a3c cd4a 11be 4e31 b63d
00000200: 385c 363d 9971 6c3b c779 bebd 2cee cebd
00000210: 6f10 b9bd fa71 e73d a6a2 663d 61a8 a8bd
00000220: 1358 2cbd cf60 70bd bf6a 873d 80af de3d
00000230: de60 8b3d f130 13be 2b0d b6bd f031 8239
00000240: c46d 1e3e ae1b 1f3e a857 cdbd e4f8 a63d
00000250: 6844 0d3e 0bcd f23c 303f 803d bbf5 433d
00000260: 1655 bbbd 3e44 05be adfe cdbd d31c dd3c
00000270: a711 d8bd cac5 9b3d e2a2 5cbc e6a7 363c
00000280: 51ea 02be 3502 97bd 8634 be3d a611 24be
00000290: eb6d c93d 916e 193e 885e 5dbd a91e b8ba
000002a0: 4786 db3d c06b dcba efba 79bd 83f8 053e
000002b0: f819 fb3d 5fc4 04be d668 343d 5765 ffbd
000002c0: 9d8a d73d a344 b5bd 52eb 103e 4739 aa3d
000002d0: ff9e b93d daf2 81bd a062 f13d 8bc2 cc3d
000002e0: 5b2f c43d 3bc5 0a3d f97e 023e f8a8 3c3d
000002f0: 04c7 c4bd 079e 04be 2849 28be edd0 f7bd
00000300: 5da6 803d 8542 8abd f76b 063e 8399 f53d
00000310: 52f7 163e bf4e 133e 82fb 253d e9ed f73d
00000320: fee7 0ebe dda0 e7bd dc3f 10be 666e 0a3e
00000330: 5397 bcbd b5c6 a43d d471 fb3d 86a6 163e
00000340: e21f 9b3d 243e b4bd 1c3c 333d 7c4f 023e
00000350: 5c33 2dbb d525 853d 4aba 093e 8e6d b23d
00000360: 8788 a1bd 1043 01bd fa35 d1bd 28da 0f3e
00000370: 0b52 e1bd 0907 c5bd 9825 6c3d 29fb 06bc
00000380: 4f55 05be 8857 363d e47f b03c fed3 1bbe
00000390: 27fe 15be b9ab 91bd b800 b2bb 2170 e63d
000003a0: 1669 2cbd c10d 0a3e a583 edbd c0c0 89bd
000003b0: 60e2 313d 4ab7 803a 89f3 85bd 28a3 ef3b
000003c0: ed6e febd 370f 95bd c796 15bd b3ef cfbd
000003d0: 8e68 c33c 7ea5 d7bc 7019 a03d ca95 33bd
000003e0: 50cb 1c3e 14fb 39bd 058e 1dbe a42d 813d
000003f0: dd68 25be ba05 18bc 4f52 d6bd 1f06 00bd

hidden1.bias f4 [100]
0.05408274 -0.10716568 0.14637037 -0.08372757 -0.00927641 0.04578935 0.111001074 0.122881055
-0.15007086 0.084203914 -0.15714665 -0.05321409 0.0587511 -0.11465322 0.13440488 -0.10049668
0.04513145 0.010641506 0.14028051 0.012359518 0.072212785 -0.06439622 -0.024146438 -0.12693593
-0.06187921 0.06133442 0.1256061 -0.07918266 0.14675228 -0.0745989 -0.106926225 -0.085941605
0.089635834 -0.044305842 -0.099412 0.0030309716 0.12705931 -0.12748662 -0.117509946 0.11107077
-0.05702809 0.098649785 0.097416125 0.08471349 0.10052648 -0.11529388 -0.07530775 -0.036213685
-0.15407826 0.11106736 0.016874293 0.06510647 0.0041096024 -0.14873755 0.08696579 -0.0317148
-0.08901504 0.15093005 0.024350498 0.054547116 0.0972201 -0.006608592 -0.077693254 0.028275209
0.117656566 0.03276576 -0.04229216 -0.12668997 0.005471406 -0.006340213 -0.08613386 -0.06964241
-0.065487705 0.05769784 -0.12215842 0.070326224 0.114547916 0.113986455 0.10312168 -0.05047534
0.06807711 -0.11427352 -0.1438444 -0.0111925425 -0.007905443 -0.03660003 0.0476228 0.11288079
-0.15762615 -0.15400183 0.093712054 -0.0393107 0.11851723 0.097328596 -0.023885172 0.10835292
0.027457003 -0.111413196 0.13989012 0.026692418
00000000: dd85 5d3d ae79 dbbd 1de2 153e 5c79 abbd
00000010: 15fc 17bc 9d8d 3b3d 8854 e33d 10a9 fb3d
00000020: 2dac 19be 1a73 ac3d 0deb 20be 05f7 59bd
00000030: fea4 703d 4fcf eabd 6fa1 093e 34d1 cdbd
00000040: c1db 383d b659 2e3c b2a5 0f3e 937f 4a3c
00000050: 4ce4 933d 2ae2 83bd c0ce c5bc 7efb 01be
00000060: 0e75 7dbd cd39 7b3d e39e 003e 852a a2bd
00000070: 3b46 163e 4fc7 98bd 23fc dabd 2702 b0bd
00000080: fe92 b73d 0b7a 35bd 8598 cbbd 44a3 463b
00000090: d61b 023e da8b 02be 0ea9 f0bd 1279 e33d
000000a0: 4996 69bd e608 ca3d 1b82 c73d 447e ad3d
000000b0: d4e0 cd3d 331f ecbd f33a 9abd cd54 14bd
000000c0: b1c6 1dbe 4977 e33d f53b 8a3c 8a56 853d
000000d0: d8a9 863b a84e 18be 1f1b b23d 61e7 01bd
000000e0: 844d b6bd 688d 1a3e b27a c73c cc6c 5f3d
000000f0: 551b c73d e38c d8bb a41d 9fbd 69a1 e73c
00000100: edf5 f03d 6435 063d 8b3a 2dbd 04bb 01be
00000110: 7b49 b33b 90c1 cfbb f366 b0bd aea0 8ebd
00000120: 6b1e 86bd 9254 6c3d 322e fabd 3207 903d
00000130: 1998 ea3d bb71 e93d 7631 d33d 3bbf 4ebd
00000140: 036c 8b3d 3c08 eabd f24b 13be ed60 37bc
00000150: d585 01bc eae9 15bd 2010 433d 0b2e e73d
00000160: c068 21be a8b2 1dbe 1bec bf3d 4204 21bd
00000170: 29b9 f23d 3754 c73d d6aa c3bc 23e8 dd3d
00000180: 82ed e03c 9a2c e4bd 5b3f 0f3e 0faa da3c

bn1.weight f4 [100]
1.0017005 0.99859095 1.007227 1.0009735 0.99937296 0.9980547 1.0033139 0.99900144
1.0011677 1.000131 1.0022951 1.000904 0.99998343 1.0014905 0.99955827 0.9989708
1.0004644 0.9995757 1.0001596 0.999654 0.9988102 0.9979686 1.0006824 0.99906164
1.0034599 0.9985152 0.99927384 0.99964195 1.0064205 0.9987902 1.001287 0.9987941
1.0014267 0.9973714 0.9991099 0.9994691 0.9984053 0.99828416 0.9985448 1.0002671
0.9992026 1.0005487 1.0020558 0.99940515 1.0005202 1.0028049 0.9986427 0.99941957
0.9977449 0.9987957 0.9990624 0.9973668 0.99400854 0.9992561 1.00196 1.0002105
0.99948424 0.9980081 0.9973211 0.9994569 0.996943 1.0002936 0.999083 0.9987308
1.0000291 0.9976643 0.99733496 0.99917287 0.99906164 0.99731165 0.99866796 1.0013744
0.9969294 0.9991276 1.0001471 0.9983425 0.99745154 0.99778116 0.9994014 0.99982274
1.0011282 0.9990397 1.0014035 0.9985883 1.0010206 0.9999901 1.0005673 1.0049452
1.0012283 1.0000744 0.99803036 1.0012019 1.0016289 0.9986424 0.99961334 1.0012232
0.997119 0.99977905 0.9991751 0.9996537
00000000: b937 803f a8a3 7f3f d0ec 803f e61f 803f
00000010: e8d6 7f3f 8380 7f3f 976c 803f 8fbe 7f3f
00000020: 4326 803f 4b04 803f 354b 803f 9f1d 803f
00000030: eafe 7f3f d730 803f 0de3 7f3f 8dbc 7f3f
00000040: 380f 803f 31e4 7f3f 3b05 803f 53e9 7f3f
00000050: 06b2 7f3f df7a 7f3f 5c16 803f 81c2 7f3f
00000060: 6071 803f b19e 7f3f 69d0 7f3f 89e8 7f3f
00000070: 63d2 803f b7b0 7f3f 2c2a 803f f8b0 7f3f
00000080: c02e 803f bb53 7f3f abc5 7f3f 35dd 7f3f
00000090: 7d97 7f3f 8d8f 7f3f a2a0 7f3f c108 803f
000000a0: becb 7f3f fb11 803f 5d43 803f 04d9 7f3f
000000b0: 0c11 803f e95b 803f 0ca7 7f3f f6d9 7f3f
000000c0: 366c 7f3f 13b1 7f3f 8ec2 7f3f 6e53 7f3f
000000d0: 5877 7e3f 3fcf 7f3f 3a40 803f e606 803f
000000e0: 33de 7f3f 757d 7f3f 7050 7f3f 68dc 7f3f
000000f0: a837 7f3f 9f09 803f e7c3 7f3f d2ac 7f3f
00000100: f400 803f ed66 7f3f 5851 7f3f cbc9 7f3f
00000110: 81c2 7f3f d14f 7f3f b4a8 7f3f 092d 803f
00000120: c436 7f3f d4c6 7f3f d204 803f 6093 7f3f
00000130: fc58 7f3f 966e 7f3f c5d8 7f3f 62f4 7f3f
00000140: f824 803f 11c1 7f3f fd2d 803f 7ca3 7f3f
00000150: 7121 803f 5aff 7f3f 9712 803f 0ba2 803f
00000160: 4028 803f 7002 803f eb7e 7f3f 6227 803f
00000170: 6035 803f 07a7 7f3f a9e6 7f3f 1528 803f
00000180: 3143 7f3f 85f1 7f3f f0c9 7f3f 4ee9 7f3f

bn1.bias f4 [100]
0.0011345078 -0.0015785672 0.008081695 0.0031570347 -0.00035669326 -0.0032110014 0.0014399695 -0.0018795358
0.0025396936 0.0020758454 -0.00015920892 0.0034555902 9.325619e-05 0.004168181 -0.00017757127 -0.00061152363
0.0007530678 0.0002720986 0.0023823392 0.0014203185 -0.0014674771 -0.0022890728 0.0020199118 -0.00026481086
0.005301401 -0.0011292922 0.00031065024 -0.0011986227 0.0031031005 -0.0021972833 0.003550065 -0.0022537014
0.003421361 -0.0007643875 -0.0004551533 -0.00039652732 -0.00014424913 0.00054338947 0.00014017156 0.0003780196
-0.0005724198 0.00019058745 0.0014946513 -0.0009153029 -0.0006835535 0.0033842842 -0.001845007 -0.001246564
-0.0019878263 -0.0013304473 -0.0003573217 -0.0024356584 -0.0035836753 -0.00080401637 0.0022957884 0.0011931591
-0.00043512 -0.000278545 -0.0020628644 -0.00056223903 -0.0038382264 -0.0006826537 0.00081417395 -0.0007716066
0.0023437673 -0.001273425 -0.0026325004 0.0012978428 -0.00093689194 -0.0038741794 -0.00094953785 0.003083056
-0.0018301057 0.0012236228 -4.35174e-05 -0.001504613 -0.0013779622 -0.0020707115 -0.00024631014 0.00016387033
0.00032770645 -4.1344516e-05 0.000995053 -0.00095582823 0.00014719304 0.00027700563 0.00056355173 0.0008762585
-0.00037463926 0.0028890262 -0.0009866426 0.00082288764 0.0013312731 0.0004933067 -0.0002373089 0.002799282
-0.003283556 0.00038785153 -0.0005176878 -0.0012991775
00000000: c4b3 943a ede7 ceba 1669 043c 41e6 4e3b
00000010: 8f02 bbb9 aa6f 52bb 5cbd bc3a c25a f6ba
00000020: fd70 263b e80a 083b 52f1 26b9 2f77 623b
00000030: 8992 c338 3d95 883b 6d32 3ab9 a84e 20ba
00000040: 8669 453a 75a8 8e39 0521 1c3b fb29 ba3a
00000050: 5c58 c0ba 4504 16bb 7f60 043b 50d6 8ab9
00000060: 60b7 ad3b c204 94ba c5de a239 1b1b 9dba
00000070: 635d 4b3b 4c00 10bb 35a8 683b d6b2 13bb
00000080: ea38 603b 2d61 48ba a4a1 eeb9 ffe4 cfb9
00000090: 9541 17b9 4072 0e3a 04fb 1239 ef30 c639
000000a0: 710e 16ba 6ed8 4739 2de8 c33a f0f0 6fba
000000b0: 8030 33ba deca 5d3b 29d4 f1ba bf63 a3ba
000000c0: 3146 02bb 6762 aeba e856 bbb9 919f 1fbb
000000d0: 18dc 6abb a0c4 52ba f074 163b c763 9c3a
000000e0: d120 e4b9 ad09 92b9 1f31 07bb 3963 13ba
000000f0: c18a 7bbb 1df4 32ba 4a6e 553a a445 4aba
00000100: e499 193b 0de9 a6ba 0786 2cbb 611c aa3a
00000110: c199 75ba f2e5 7dbb 68ea 78ba 190d 4a3b
00000120: 28e0 efba f861 a03a 7486 36b8 6f36 c5ba
00000130: bd9c b4ba c6b4 07bb 3023 81b9 9bd4 2b39
00000140: 04d0 ab39 5669 2db8 706c 823a 8c90 7aba
00000150: d557 1a39 113b 9139 51bb 133a b6b4 653a
00000160: 3b6b c4b9 d155 3d3b 3b52 81ba 0eb7 573a
00000170: 1d7e ae3a 4151 013a 1fd6 78b9 2974 373b
00000180: ee30 57bb 8d58 cb39 71b5 07ba 2a49 aaba

bn1.running_mean f4 [100]
8.722463 -4.2961535 0.58215827 -22.17221 25.019562 27.521046 -8.396248 5.1951036
-16.34519 -15.742001 -12.468057 -20.998133 27.636305 2.6380167 -8.993366 16.896534
9.213641 1.1005943 -13.122235 6.6943316 7.6533575 -3.8215067 -3.8238168 -20.135592
0.56788236 -19.410112 -7.20893 26.287092 -1.1263727 -8.430481 0.7466208 -16.336126
-7.412819 4.484321 7.425822 -0.5800027 10.72555 3.1835032 -20.605625 1.2317252
5.10529 -5.1768155 24.678919 -34.51218 -4.2713923 7.845946 12.434198 5.5813856
-24.530846 -0.032469224 21.007265 -10.748301 9.300157 47.339012 2.0217307 12.638794
-0.8800778 12.91737 -22.620783 1.3890823 9.465585 20.526022 -17.709654 -16.87938
-1.9094915 -3.3726718 -3.824306 -5.5731664 -9.312788 -20.417665 1.7651143 -6.289484
2.533299 -22.574245 -6.2359333 -16.93592 -13.584089 2.425513 -13.151302 17.730858
3.8460197 -5.6076584 12.926477 13.487885 -4.883717 -18.091234 18.603754 -5.9916553
-7.3800473 -28.764622 -14.382708 -19.526241 -12.331356 -20.785675 29.069927 -15.567238
35.03869 -35.25859 -1.6447176 21.985123
00000000: 358f 0b41 177a 89c0 5308 153f b060 b1c1
00000010: 1028 c841 1a2b dc41 0857 06c1 4a3e a640
00000020: f3c2 82c1 3cdf 7bc1 297d 47c1 2dfc a7c1
00000030: 2717 dd41 44d5 2840 d4e4 0fc1 1a2c 8741
00000040: 136b 1341 46e0 8c3f adf4 51c1 f737 d640
00000050: 4ee8 f440 9193 74c0 6ab9 74c0 b115 a1c1
00000060: bd60 113f e947 9bc1 8eaf e6c0 f74b d241
00000070: fb2c 90bf 40e3 06c1 8a22 3f3f 63b0 82c1
00000080: d035 edc0 8f7f 8f40 55a0 ed40 0f7b 14bf
00000090: da9b 2b41 84be 4b40 52d8 a4c1 2ca9 9d3f
000000a0: 895e a340 79a8 a5c0 6d6e c541 790c 0ac2
000000b0: 3faf 88c0 fd11 fb40 7af2 4641 b69a b240
000000c0: 2c3f c4c1 73fe 04bd e10e a841 0af9 2bc1
000000d0: 71cd 1441 265b 3d42 0964 0140 8038 4a41
000000e0: c74c 61bf 8cad 4e41 5df7 b4c1 73cd b13f
000000f0: 0973 1741 4b35 a441 5fad 8dc1 f808 87c1
00000100: 386a f4bf dbd9 57c0 6ec1 74c0 6157 b2c0
00000110: 2e01 15c1 6157 a3c1 44ef e13f 7443 c9c0
00000120: 9221 2240 0e98 b4c1 c48c c7c0 c47c 87c1
00000130: 6e58 59c1 9b3b 1b40 bc6b 52c1 ccd8 8d41
00000140: 3025 7640 f071 b3c0 dad2 4e41 61ce 5741
00000150: 6947 9cc0 d9ba 90c1 7dd4 9441 a4bb bfc0
00000160: 5929 ecc0 f21d e6c1 921f 66c1 be35 9cc1
00000170: 3c4d 45c1 1049 a6c1 368f e841 6813 79c1
00000180: 9e27 0c42 cc08 0dc2 1b86 d2bf 88e1 af41

bn1.running_var f4 [100]
71.815926 65.109825 68.33439 274.88654 229.83388 202.33264 51.485428 143.44586
86.53689 204.72517 127.80584 195.34076 218.6648 102.21639 127.73035 223.65585
197.44962 102.17921 142.70589 112.81662 79.41912 88.379295 61.917995 150.79616
120.05533 228.85596 98.076515 292.05026 57.142956 68.314 118.4064 77.15085
95.88113 64.622444 121.085556 86.906265 87.64222 106.81292 158.4337 91.044945
137.34789 85.801285 83.97519 207.5137 158.24606 109.15252 144.30554 128.95334
94.41755 107.3612 154.74545 131.9419 146.35635 227.32132 160.14441 79.29194
102.061325 68.26546 68.556816 115.5351 98.7961 261.00244 146.03117 122.066315
100.84897 64.28964 223.26982 100.27168 172.13666 180.66035 101.81721 93.31942
67.88835 119.066925 145.67699 93.3508 140.06361 124.545456 102.72107 109.79839
69.19913 79.50574 107.51539 252.00552 112.379974 74.397415 84.405396 95.33665
134.12704 238.88809 171.26718 135.44464 129.89525 165.45403 353.84436 57.662285
402.16815 154.08849 86.74486 156.87567
00000000: c1a1 8f42 3b38 8242 35ab 8842 7a71 8943
00000010: 79d5 6543 2855 4a43 14f1 4d42 2472 0f43
00000020: e312 ad42 a5b9 4c43 979c ff42 3c57 4343
00000030: 30aa 5a43 cb6e cc42 f075 ff42 e6a7 5f43
00000040: 1a73 4543 c15b cc42 b5b4 0e43 1ca2 e142
00000050: 97d6 9e42 33c2 b042 07ac 7742 d1cb 1643
00000060: 541c f042 20db 6443 2d27 c442 6f06 9243
00000070: 6392 6442 c5a0 8842 14d0 ec42 3c4d 9a42
00000080: 23c3 bf42 b13e 8142 ce2b f242 02d0 ad42
00000090: d148 af42 37a0 d542 076f 1e43 0317 b642
000000a0: 0f59 0943 429a ab42 4cf3 a742 8283 4f43
000000b0: fe3e 1e43 174e da42 384e 1043 0ef4 0043
000000c0: c9d5 bc42 efb8 d642 d6be 1a43 20f1 0343
000000d0: 3a5b 1243 4252 6343 f824 2043 7995 9e42
000000e0: 661f cc42 ea87 8842 171d 8942 f911 e742
000000f0: 9a97 c542 5080 8243 fb07 1243 f421 f442
00000100: acb2 c942 4c94 8042 1345 5f43 1a8b c842
00000110: fc22 2c43 0da9 3443 69a2 cb42 8ba3 ba42
00000120: d6c6 8742 4422 ee42 4fad 1143 9cb3 ba42
00000130: 4910 0c43 4617 f942 3071 cd42 c798 db42
00000140: f465 8a42 f002 9f42 e107 d742 6a01 7c43
00000150: 8cc2 e042 7acb 9442 90cf a842 5dac be42
00000160: 8620 0643 5ae3 6e43 6644 2b43 d471 0743
00000170: 2fe5 0143 3b74 2543 14ec b043 2ea6 6642
00000180: 8615 c943 a716 1a43 5e7d ad42 2ce0 1c43

hidden2.weight f4 [500, 100]
-0.09750956 0.046826348 -0.021825295 -0.090050876 -0.032866687 -0.056840807 -0.09562137 -0.057904582
-0.07390286 -0.048171885 -0.031806596 -0.09219143 -0.004048237 0.012099277 -0.07062308 -0.0489794
0.0009237243 -0.008482794 -0.026479203 -0.07528484 0.06148188 -0.090961754 -0.054652512 -0.08571629
-0.069981776 0.084554575 0.03579793 0.061845392 -0.039536808 0.07255567 -0.078278035 0.09071646
0.041756723 -0.018976944 0.062188376 0.036467962 -0.04102584 -0.07626581 -0.002602686 -0.08948603
-0.08366064 0.036151696 0.04208723 -0.006997153 -0.051062826 0.06628816 0.071468964 0.09011717
0.001108906 0.006463818 0.096272886 -0.0653462 0.030240161 0.061319035 -0.0649026 0.07816508
0.08209423 0.09710084 0.046588067 -0.027269434 0.010120165 -0.08731234 0.074018024 -0.069494575
0.0019071861 0.08249952 -0.03467052 -0.05258854 -0.020870965 -0.013429824 0.01723292 -0.0048336484
0.09320116 -0.033891186 0.02924648 0.08119889 0.09603844 0.0990099 -0.05199874 -0.090912975
-0.03132723 0.05634563 -0.039010085 0.02934247 -0.006333142 0.090947725 0.04775084 0.09606996
-0.09474439 0.040681988 -0.015163965 -0.028913712 -0.0058270292 0.050368633 -0.07751752 -0.01610694
0.06614334 0.09621569 0.030605145 -0.028130213 -0.024209546 0.070982985 -0.09356414 0.049229555
-0.0018146419 0.05211203 -0.065841466 -0.0744242 -0.031181352 -0.021028131 -0.08102968 -0.06610739
0.05773052 0.06248961 0.068160295 0.085312314 0.07681655 0.098607704 -0.094323754 0.055400953
-0.0640639 -0.08034957 0.07919747 -0.04344211 -0.0076989927 -0.08147239 0.0068252846 -0.06926216
-0.0645555 0.020484855 -0.018255027 0.08233394 0.062627174 -0.037194893 -0.033911545 0.007584048
0.05720442 0.018072255 0.006589145 0.092608385 0.03330218 -0.04809305 -0.0002915628 -0.0656721
-0.02907714 0.052162997 -0.050771046 -0.008670441 -0.09547959 0.09396599 -0.052134275 -0.09031139
0.07212561 -0.07397689 0.008642685 -0.060010195 -0.05735414 0.036722317 0.00033593224 -0.06305472
0.092135325 -0.04636438 0.05768792 0.012704019 -0.036242634 0.06212532 -0.032753352 -0.07141922
0.08715941 0.021024173 -0.089040585 0.099674605 -0.010689724 -0.054596458 -0.043764055 0.031724684
0.056520313 0.028842561 -0.053219274 0.0101043675 -0.0818022 -0.090897396 0.02045938 -0.08587868
-0.054224398 0.09791989 0.048457704 -0.028451407 -0.069678105 0.0033371702 0.07251917 -0.01152058
-0.09217211 0.052499387 0.036329076 -0.063188195 -0.015210347 0.085754514 0.069463 -0.06379052
0.047476083 -0.08002913 0.08253799 0.08481753 0.047805637 0.041705288 0.060964555 0.044606265
0.031584274 0.0414049 0.039757617 0.04557714 -0.014395146 -0.014487222 -0.020583404 -0.0206584
0.047887914 0.021556845 0.0046270713 0.016599888 0.009471074 -0.05789552 -0.07900458 -0.04787781
0.006910304 -0.07048406 0.0578019 -0.060490787 0.08207792 -0.0633933 -0.04501333 -0.024469096
0.047860947 -0.025045805 0.056960095 0.0464396 -0.0655265 -0.01645306 -0.07964018 -0.068108685
-0.03890686 -0.042858914 -0.055101257 -0.09449951 -0.027015915 -0.013502404 -0.07622589 0.010594305
0.027823268 0.024346285 0.012146915 -0.027686859 -0.027036149 -0.049493793 0.0906097 -0.02586707
00000000: 18b3 c7bd fccc 3f3d f6ca b2bc 986c b8bd
00000010: 389f 06bd e8d1 68bd 23d5 c3bd 5b2d 6dbd
00000020: 625a 97bd e24f 45bd a247 02bd dcce bcbd
00000030: 13a7 84bb 0c3c 463c d5a2 90bd a09e 48bd
00000040: 1726 723a 6bfb 0abc eaea d8bc f02e 9abd
00000050: 6cd4 7b3d 284a babd 50db 5fbd 068c afbd
00000060: 9b52 8fbd f32a ad3d daa0 123d 9851 7d3d
00000070: 59f1 21bd 1198 943d 3c50 a0bd 8dc9 b93d
00000080: 1909 2b3d 8975 9bbc 3db9 7e3d 6e5f 153d
00000090: b60a 28bd 4031 9cbd d391 2abb 7444 b7bd
000000a0: 4556 abbd cd13 143d a963 2c3d 6048 e5bb
000000b0: 4127 51bd 16c2 873d 525e 923d 5a8f b83d
000000c0: b658 913a 6fce d33b b82a c53d 3ad4 85bd
000000d0: 37ba f73c ab29 7b3d a8eb 84bd 0315 a03d
000000e0: 0521 a83d cedc c63d 21d3 3e3d 2664 dfbc
000000f0: 0ccf 253c d0d0 b2bd c396 973d 2c53 8ebd
00000100: 8cfa f93a 82f5 a83d ad02 0ebd 1567 57bd
00000110: 96f9 aabc c408 5cbc 0d2c 8d3c 9563 9ebb
00000120: 40e0 be3d 7cd1 0abd 5096 ef3c 9b4b a63d
00000130: cdaf c43d b4c5 ca3d a1fc 54bd 9530 babd
00000140: fb50 00bd adca 663d 0ac9 1fbd 9f5f f03c
00000150: 3f86 cfbb cd42 ba3d 6396 433d 54c0 c43d
00000160: 5909 c2bd 28a2 263d 4772 78bc 73dc ecbc
00000170: aaf0 bebb 574f 4e3d 81c1 9ebd b4f2 83bc
00000180: 2976 873d bb0c c53d a4b7 fa3c 5571 e6bc
00000190: 1953 c6bc 875f 913d 8e9e bfbd eea4 493d
000001a0: 47d9 edba 6d73 553d e4d7 86bd b76b 98bd
000001b0: 0970 ffbc 3043 acbc e4f2 a5bd 5063 87bd
000001c0: d676 6c3d 1bf5 7f3d a097 8b3d 39b8 ae3d
000001d0: ff51 9d3d d6f2 c93d d02c c1bd 1cec 623d
000001e0: ef33 83bd 518e a4bd 4832 a23d 5bf0 31bd
000001f0: d547 fcbb ffda a6bd a3a6 df3b 52d9 8dbd
00000200: ad35 84bd dbcf a73c 918b 95bc b29e a83d
00000210: ad42 803d ac59 18bd d5e6 0abd 9b83 f83b
00000220: 2f4f 6a3d 440c 943c c1e9 d73b 77a9 bd3d
00000230: de67 083d 38fd 44bd e6dc 98b9 187f 86bd
00000240: 2f33 eebc dea8 553d 4df5 4fbd 770e 0ebc
00000250: ce8a c3bd 3e71 c03d c08a 55bd 2ef5 b8bd
00000260: 98b6 933d 3281 97bd 0c9a 0d3c 40cd 75bd
00000270: 2dec 6abd 246a 163d 1020 b039 d522 81bd
00000280: 72b1 bc3d 93e8 3dbd 2b4a 6c3d 8524 503c
00000290: 2873 14bd 1f77 7e3d 6128 06bd 3d44 92bd
000002a0: a280 b23d e33a ac3c e95a b6bd 3322 cc3d
000002b0: f423 2fbc 89a0 5fbd f041 33bd bef1 013d
000002c0: d881 673d 3c47 ec3c 74fc 59bd ca8c 253c
000002d0: e987 a7bd 6a28 babd 6e9a a73c 29e1 afbd
000002e0: 671a 5ebd 398a c83d 967b 463d ed12 e9bc
000002f0: 65b3 8ebd 6db4 5a3b ee84 943d d1c0 3cbc
00000300: bbc4 bcbd 9909 573d cccd 143d d068 81bd
00000310: d234 79bc 10a0 af3d 9e42 8e3d 9ba4 82bd
00000320: 4876 423d 50e6 a3bd ad09 a93d d0b4 ad3d
00000330: d8cf 433d 2ad3 2a3d f8b5 793d 0fb5 363d
00000340: 835e 013d 2f98 293d e2d8 223d 18af 3a3d
00000350: 9ed9 6bbc d05b 6dbc 879e a8bc ce3b a9bc
00000360: 1e26 443d fb97 b03c b09e 973b 7dfc 873c
00000370: 902c 1b3c da23 6dbd 27cd a1bd 861b 44bd
00000380: d56f e23b f259 90bd afc1 6c3d 30c5 77bd
00000390: 7818 a83d 59d4 81bd e65f 38bd 6a73 c8bc
000003a0: d709 443d dc2c cdbc fd4e 693d 7337 3e3d
000003b0: c232 86bd 91c8 86bc 641a a3bd 917c 8bbd
000003c0: cd5c 1fbd d48c 2fbd dbb1 61bd f688 c1bd
000003d0: 7b50 ddbc 3039 5dbc 521c 9cbd bc93 2d3c
000003e0: 9fed e33c dc71 c73c db03 473c 8dcf e2bc
000003f0: ea7a ddbc 01ba 4abd 9491 b93d 2de7 d3bc

hidden2.bias f4 [500]
-0.04002746 0.027927335 -0.013171839 0.087005734 -0.024649119 0.065467484 0.0030204577 -0.0061702346
0.06375346 0.017821927 -0.037792616 -0.058626086 -0.09518679 0.07625797 0.033243667 0.0831878
0.08978265 0.09743277 0.07268793 -0.051414024 -0.043893643 0.018616289 -0.015282225 -0.002835869
-0.03072154 0.07707531 0.012774253 0.08465027 0.07965214 0.021717524 -0.03654097 -0.009254852
0.088935174 0.033073243 -0.023961667 -0.089884706 -0.059804816 0.07207506 0.094178125 -0.023680529
0.07927024 -0.064501025 0.09490859 -0.08783042 0.04966577 -0.0052093547 0.01112802 0.038858697
0.025724258 0.051916853 0.015197401 0.086692534 0.042924915 -0.06670727 0.03623427 0.06433474
-0.08161452 -0.01066461 0.062392604 0.0019582533 -0.054275177 0.0019261101 -0.09002808 -0.0037437133
0.015066513 -0.08433224 -0.08386467 0.087840535 -0.018880304 -0.032348394 -0.07763176 0.052261043
0.09620596 0.05601944 0.10051338 -0.07262292 -0.015454345 -0.027839897 -0.03480735 -0.021947322
0.0071629114 0.0595952 -0.09910429 -0.07477461 -0.09384404 -0.04003321 0.08584852 -0.085079856
0.013643563 -0.08865179 -0.085007265 -0.019335087 -0.0807224 0.09312659 0.063954085 0.08284137
-0.017814385 -0.009427842 0.09974394 0.052566193 0.067904875 -0.011033401 -0.08225789 -0.094344795
0.025553582 0.057704676 0.093323305 0.016250085 -0.026265392 -0.026407864 0.006411595 0.01956525
-0.09607533 0.047135428 0.06107397 0.05896349 -0.062149838 -0.07217371 0.0661706 0.030654809
0.089536004 0.07082118 -0.0923003 -0.06487906 0.093697734 0.03657519 -0.047896937 -0.077225804
-0.06412022 0.041662946 0.079503864 -0.06744586 -0.08104799 -0.07572537 -0.04688434 -0.061242305
-0.023083668 -0.01150353 0.083986126 0.027367624 0.094384946 0.08233756 0.08348829 -0.09870431
-0.0326748 0.06815831 -0.07798872 -0.073035836 -0.02660535 0.02872192 -0.08039444 -0.047192488
0.055077426 -0.06512177 0.008330831 0.025936458 -0.08821524 -0.023799922 0.06335814 0.014585567
0.05846445 -0.099146545 -0.042387385 -0.022639478 -0.08569086 -0.014689606 0.07761778 0.07031465
-0.023974443 -0.07371769 0.022981135 0.046444498 0.02969888 0.036772925 -0.05485286 -0.027384903
0.02768758 -0.0068667345 -0.00028270305 0.07851288 0.025957055 -0.024123276 0.035222128 -0.01263463
0.07245087 0.006057598 -0.06504542 -0.015154161 0.018058183 0.08325974 -0.056787428 0.075936414
-0.053465907 0.057946667 -0.087868065 -0.049055148 0.008994069 -0.0010049891 -0.030800484 -0.048729107
0.021930609 -0.04848132 -0.04899511 -0.082616 0.018872084 0.033063672 0.04172153 -0.07022605
0.031546135 0.05926738 -0.04198811 -0.08440844 -0.04119482 -0.03683719 0.04135283 0.015881399
-0.09955449 -0.09228851 -0.05390819 -0.06222433 0.08717031 -0.022255046 -0.05740767 -0.0972587
-0.07699246 0.00066477497 0.085911386 0.06874385 -0.021801317 -0.053876076 -0.043702412 0.091098785
0.08336152 -0.059713226 0.023944836 0.044771932 0.04724886 -0.008826682 0.01479746 -0.09615969
0.021088913 -0.063758485 -0.026829693 -0.04431765 -0.028945504 -0.095047005 -0.0643641 -0.069183566
0.07249649 0.059803452 -0.07747753 0.024704361 -0.021254066 0.020703973 -0.038461596 0.059150856
00000000: d5f3 23bd dec7 e43c b2ce 57bc 1030 b23d
00000010: f3ec c9bc d113 863d dff2 453b ae2f cabb
00000020: 2d91 823d 4aff 913c 6ecc 1abd e821 70bd
00000030: 4bf1 c2bd 232d 9c3d 832a 083d 5e5e aa3d
00000040: f7df b73d d58a c73d 69dd 943d 8397 52bd
00000050: d2c9 33bd 3081 983c 4c62 7abc fdd9 39bb
00000060: bdab fbbc a9d9 9d3d 1a4b 513c 1f5d ad3d
00000070: a920 a33d f3e8 b13c fcab 15bd aaa1 17bc
00000080: a523 b63d cf77 073d 424b c4bc 7915 b8bd
00000090: e5f5 74bd 179c 933d 76e0 c03d abfd c1bc
000000a0: 7058 a23d 1d19 84bd 6f5f c23d 6fe0 b3bd
000000b0: 566e 4b3d 3cb3 aabb 4c52 363c 4c2a 1f3d
000000c0: aebb d23c c4a6 543d 85fe 783c db8b b13d
000000d0: 09d2 2f3d d29d 88bd 636a 143d efc1 833d
000000e0: 8325 a7bd 9eba 2ebc 638f 7f3d 0a56 003b
000000f0: a64f 5ebd 8875 fc3a a460 b8bd 1659 75bb
00000100: 89d9 763c 62b6 acbd 3dc1 abbd bde5 b33d
00000110: deaa 9abc c07f 04bd 66fd 9ebd ad0f 563d
00000120: a107 c53d a474 653d f5d9 cd3d 53bb 94bd
00000130: 3934 7dbc 7f10 e4bc 2792 0ebd dfca b3bc
00000140: dbb6 ea3b 191a 743d 31f7 cabd 6e23 99bd
00000150: 4e31 c0bd ddf9 23bd 59d1 af3d 593e aebd
00000160: 4089 5f3c 128f b5bd 4a18 aebd 9e64 9ebc
00000170: c951 a5bd 27b9 be3d 5cfa 823d bca8 a93d
00000180: 79ef 91bc 3c77 1abc 8d46 cc3d a64f 573d
00000190: b611 8b3d 70c5 34bc d376 a8bd d837 c1bd
000001a0: bf55 d13c bd5b 6c3d 4a20 bf3d e61e 853c
000001b0: 852a d7bc 4e55 d8bc 5b18 d23b 4e47 a03c
000001c0: 25c3 c4bd 1411 413d b328 7a3d b383 713d
000001d0: d490 7ebd cfcf 93bd 7484 873d cb1f fb3c
000001e0: a75e b73d b20a 913d f107 bdbd 50df 84bd
000001f0: 99e4 bf3d decf 153d 942f 44bd 9028 9ebd
00000200: 7651 83bd c4a6 2a3d ecd2 a23d 0e21 8abd
00000210: 7dfc a5bd e715 9bbd cb09 40bd 36d9 7abd
00000220: f619 bdbc 4d79 3cbc eb00 ac3d 1132 e03c
00000230: e54c c13d 98a0 a83d e9fb aa3d 7c25 cabd
00000240: 03d6 05bd 9696 8b3d 8db8 9fbd d093 95bd
00000250: 77f3 d9bc 3b4a eb3c d7a5 a4bd e94c 41bd
00000260: de98 613d 905e 85bd 0a7e 083c b278 d43c
00000270: 31aa b4bd 0ef8 c2bc eac1 813d 4df8 6e3c
00000280: 6b78 6f3d 580d cbbd 659e 2dbd 6d76 b9bc
00000290: b17e afbd acac 70bc 12f6 9e3d 2101 903d
000002a0: 0d66 c4bc 4df9 96bd ef42 bc3c 963c 3e3d
000002b0: 114b f33c 359f 163d 64ad 60bd 4e56 e0bc
000002c0: 10d1 e23c 5802 e1bb c337 94b9 5ccb a03d
000002d0: e4a3 d43c 2d9e c5bc 1445 103d 7b01 4fbc
000002e0: 1f61 943d d17e c63b 8836 85bd 2849 78bc
000002f0: c1ee 933c 1584 aa3d ef99 68bd 8d84 9b3d
00000300: 11ff 5abd 7c59 6d3d 2cf4 b3bd 0dee 48bd
00000310: dc5b 133c d7b9 83ba 4c51 fcbc 2c98 47bd
00000320: d2a7 b33c 5994 46bd 19af 48bd 9432 a9bd
00000330: a199 9a3c c66d 073d 32e4 2a3d add2 8fbd
00000340: 8536 013d 5ac2 723d b9fb 2bbd 55de acbd
00000350: e6bb 28bd 98e2 16bd 9661 293d b519 823c
00000360: 39e3 cbbd c201 bdbd d6ce 5cbd f0de 7ebd
00000370: 5986 b23d 3750 b6bc 4e24 6bbd 922f c7bd
00000380: 39ae 9dbd 4b44 2e3a 4ff2 af3d 93c9 8c3d
00000390: ad98 b2bc 29ad 5cbd 4d01 33bd 0092 ba3d
000003a0: 72b9 aa3d db95 74bd f627 c43c c662 373d
000003b0: 0588 413d ca9d 10bc 0c71 723c 5fef c4bd
000003c0: a8c2 ac3c cf93 82bd f2c9 dbbc 6d86 35bd
000003d0: 1f1f edbc 01a8 c2bd 53d1 83bd 1db0 8dbd
000003e0: 0a79 943d 77f4 743d 8aac 9ebd cd60 ca3c
000003f0: 021d aebc 619b a93c e889 1dbd 2b48 723d

bn2.weight f4 [500]
1.0000321 0.9997769 0.99988186 0.99984795 1.0001127 1.0004863 0.99976104 1.00005
0.99948806 0.9995817 0.9987812 0.99980783 0.9998085 1.0001098 1.0009167 1.0005286
1.0000937 1.000136 0.9999776 1.000167 0.99984574 1.0000569 0.99994487 1.0004591
0.9995848 0.9991253 1.0002224 1.000189 1.0001951 1.0000296 0.99977237 0.99998
1.0000546 0.99998903 0.9999565 1.0000802 1.0002378 0.9993869 0.99901193 1.0006298
0.99937767 0.9999888 0.9999262 0.9994272 0.9995359 0.99871427 1.0008233 0.9999233
1.0001391 0.99948734 0.9992612 1.0011402 1.0000483 0.9997697 0.9995688 1.0008624
0.9995555 0.99948066 1.0003593 0.99966806 0.99986035 1.0006629 0.9998982 1.0000204
0.9996288 0.99972 0.9995954 0.9998517 1.0004991 0.99992067 0.999411 1.000477
1.0000551 0.99941725 0.99935216 0.99948263 0.99935794 1.0003921 0.99982154 1.0017427
1.0000093 0.99998605 0.999945 0.99994516 0.99913794 0.99881345 1.0005268 0.9994427
0.9995549 1.0004841 0.9994068 1.0000427 1.0038055 0.99982667 1.000026 1.0000757
1.000002 1.0002285 1.0000031 0.99973357 0.9999228 0.99997157 0.9995736 0.99946535
1.0010881 1.0001912 0.9996417 1.0000113 1.0003183 0.9995198 0.9996619 1.0010407
1.0004083 0.99995005 0.9994337 1.0000039 0.9997996 0.99997807 0.9999567 1.0005773
1.0002624 1.0000889 1.0001568 0.9994463 0.9994554 0.99946505 1.0013897 1.0006077
0.99934053 1.0000405 0.9994319 1.0000165 0.9996499 0.99970484 0.9997104 1.0000068
1.0001693 0.9999916 0.99994975 0.99982005 0.999536 1.0000002 1.000352 1.0000019
0.9994892 1.0001087 1.0010016 0.9994894 0.99936354 0.9998277 0.9995868 0.999818
0.9993751 0.9998018 0.9995483 1.0000104 0.99993926 0.99947494 0.99976206 1.0000285
1.0007296 0.99908495 0.99963427 0.99982363 1.0010273 0.9999086 0.99925804 0.99939156
0.9997898 1.0006839 0.9988308 0.9996231 1.0001217 1.0000643 0.99976814 0.99997705
0.9997086 0.99930245 0.99950254 1.0011864 0.9984222 1.0000119 1.0001591 1.0000286
0.9993897 0.999622 1.0000803 0.9992951 0.999776 1.0000426 1.0003552 0.99978375
0.99959666 0.9998872 0.9998667 1.0010206 1.0014447 0.9996596 1.0000292 0.99998534
0.9999646 0.9995261 1.0004798 0.9996241 1.0005339 0.99896836 1.0002306 0.99966216
0.9991295 0.9994104 0.99956685 0.99990284 0.999859 0.9999557 0.99944806 0.9997208
0.99929607 0.99965465 1.0006074 0.99981153 1.0000101 1.0005845 0.9997106 0.99998665
0.9992358 0.9998142 0.99974287 1.0000117 1.0003145 0.9995478 1.0003102 0.99997747
1.0005107 1.0001211 1.0000033 1.0008011 0.9998099 1.0002037 1.0000378 1.000037
0.9995827 0.99971396 0.9996238 0.99991876 0.9998897 0.99976474 1.0006217 1.0008839
1.0009993 1.0000131 0.9995731 0.9998807 1.0002583 1.000814 0.9998989 1.0003542
00000000: 0d01 803f 61f1 7f3f 42f8 7f3f 09f6 7f3f
00000010: b103 803f ef0f 803f 57f0 7f3f a301 803f
00000020: 73de 7f3f 96e4 7f3f 20b0 7f3f 68f3 7f3f
00000030: 73f3 7f3f 9903 803f 0a1e 803f 5211 803f
00000040: 1203 803f 7504 803f 88fe 7f3f 7905 803f
00000050: e4f5 7f3f dd01 803f 63fc 7f3f 0b0f 803f
00000060: cae4 7f3f adc6 7f3f 4a07 803f 3106 803f
00000070: 6506 803f f800 803f 15f1 7f3f b0fe 7f3f
00000080: ca01 803f 48ff 7f3f 26fd 7f3f a102 803f
00000090: cb07 803f d2d7 7f3f 3fbf 7f3f a314 803f
000000a0: 37d7 7f3f 44ff 7f3f 2afb 7f3f 76da 7f3f
000000b0: 96e1 7f3f bdab 7f3f fa1a 803f f9fa 7f3f
000000c0: 8f04 803f 67de 7f3f 95cf 7f3f 5d25 803f
000000d0: 9501 803f e8f0 7f3f bee3 7f3f 421c 803f
000000e0: dfe2 7f3f f7dd 7f3f c60b 803f 3fea 7f3f
000000f0: d9f6 7f3f b915 803f 54f9 7f3f ab00 803f
00000100: ace7 7f3f a6ed 7f3f 7ce5 7f3f 48f6 7f3f
00000110: 5b10 803f cdfa 7f3f 66d9 7f3f a10f 803f
00000120: ce01 803f cfd9 7f3f 8bd5 7f3f 18de 7f3f
00000130: ecd5 7f3f d90c 803f 4ef4 7f3f 1b39 803f
00000140: 4e00 803f 16ff 7f3f 65fc 7f3f 68fc 7f3f
00000150: 81c7 7f3f 3db2 7f3f 4311 803f 7adb 7f3f
00000160: d4e2 7f3f dd0f 803f 20d9 7f3f 6601 803f
00000170: b37c 803f a4f4 7f3f da00 803f 7b02 803f
00000180: 1100 803f 7d07 803f 1a00 803f 8aee 7f3f
00000190: f1fa 7f3f 23fe 7f3f 0ee4 7f3f f6dc 7f3f
000001a0: a823 803f 4406 803f 85e8 7f3f 5f00 803f
000001b0: 6e0a 803f 88e0 7f3f d8e9 7f3f 1a22 803f
000001c0: 610d 803f bafc 7f3f e3da 7f3f 2100 803f
000001d0: def2 7f3f 90fe 7f3f 2afd 7f3f eb12 803f
000001e0: 9908 803f ea02 803f 2305 803f b6db 7f3f
000001f0: 4fdc 7f3f f1dc 7f3f 8a2d 803f ea13 803f
00000200: c8d4 7f3f 5401 803f c5da 7f3f 8a00 803f
00000210: 0ee9 7f3f a8ec 7f3f 05ed 7f3f 3900 803f
00000220: 8c05 803f 73ff 7f3f b5fc 7f3f 35f4 7f3f
00000230: 97e1 7f3f 0200 803f 890b 803f 1000 803f
00000240: 86de 7f3f 9003 803f d220 803f 8ade 7f3f
00000250: 4ad6 7f3f b5f4 7f3f ece4 7f3f 13f4 7f3f
00000260: 0cd7 7f3f 03f3 7f3f 66e2 7f3f 5700 803f
00000270: 05fc 7f3f 97dd 7f3f 68f0 7f3f ef00 803f
00000280: e817 803f 08c4 7f3f 08e8 7f3f 71f4 7f3f
00000290: aa21 803f 03fa 7f3f 60cf 7f3f 20d8 7f3f
000002a0: 39f2 7f3f 6916 803f 60b3 7f3f 4de7 7f3f
000002b0: fd03 803f 1b02 803f cef0 7f3f 7ffe 7f3f
000002c0: e7ec 7f3f 49d2 7f3f 66df 7f3f e026 803f
000002d0: 9998 7f3f 6400 803f 3705 803f f000 803f
000002e0: 01d8 7f3f 3ae7 7f3f a202 803f ced1 7f3f
000002f0: 52f1 7f3f 6501 803f a40b 803f d4f1 7f3f
00000300: 91e5 7f3f 9cf8 7f3f 44f7 7f3f 7121 803f
00000310: 572f 803f b1e9 7f3f f500 803f 0aff 7f3f
00000320: aefd 7f3f f1e0 7f3f b90f 803f 5de7 7f3f
00000330: 7f11 803f 64bc 7f3f 8e07 803f dce9 7f3f
00000340: f3c6 7f3f 5cd9 7f3f 9de3 7f3f a2f9 7f3f
00000350: c2f6 7f3f 19fd 7f3f d4db 7f3f b4ed 7f3f
00000360: ded1 7f3f 5ee9 7f3f e713 803f a6f3 7f3f
00000370: 5500 803f 2713 803f 09ed 7f3f 20ff 7f3f
00000380: ebcd 7f3f d3f3 7f3f 26ef 7f3f 6200 803f
00000390: 4e0a 803f 5de2 7f3f 2a0a 803f 86fe 7f3f
000003a0: bc10 803f f803 803f 1c00 803f 401a 803f
000003b0: 8bf3 7f3f ad06 803f 3d01 803f 3601 803f
000003c0: a7e4 7f3f 41ed 7f3f 58e7 7f3f adfa 7f3f
000003d0: c5f8 7f3f 95f0 7f3f 5f14 803f f71c 803f
000003e0: bf20 803f 6e00 803f 06e4 7f3f 2ef8 7f3f
000003f0: 7708 803f ac1a 803f 60f9 7f3f 9b0b 803f

bn2.bias f4 [500]
0.00040258103 -0.00036320754 2.6777881e-05 7.259265e-05 -0.0009279472 0.00072200625 -0.00011561105 -0.00014859153
-0.00059221755 -0.00040928207 -0.0011439543 -0.00060556014 -8.8769075e-06 0.0007194889 0.0012673333 0.00037778335
0.00028919868 -0.00042268736 -0.00038277122 0.00016880735 -0.0005150658 0.0004486165 0.000105567364 0.000646784
-0.000102826794 -0.00077021826 0.0012069425 0.00074586424 0.0007840189 6.9471585e-05 -0.0005903395 9.387277e-05
-0.00014970807 0.00016807074 6.906954e-06 0.00012575861 -0.00014441277 -0.00037830794 -0.00073797023 0.00023827105
-0.0005894241 6.8020105e-05 9.7279335e-06 -0.0004016495 0.0002597997 -0.0005511048 0.0009950398 -2.8075188e-05
0.00037903246 -0.0005132706 -0.0004248104 0.0028876788 7.559631e-05 -0.00018505858 -0.0005046626 0.0012638569
-0.0003958185 -0.0006825966 0.00057109876 -0.00076905417 -0.0002660587 0.00018408967 0.00030087537 0.00073470955
-0.00014209638 -2.6899535e-05 -0.00056696375 0.00045043466 0.00059074606 -0.0005085968 -0.00047995767 0.0007948998
5.378907e-05 1.2573139e-07 -0.00065264053 -9.242447e-05 -0.0007696783 0.00055848697 -0.0005837111 0.001160715
5.279541e-05 -0.00019550575 -0.00018596914 -0.00030492715 -0.000732708 -0.0013644855 0.0007409302 0.0003188819
-0.0007964354 0.00074425736 1.1663901e-06 6.1739e-05 0.0027414472 0.00030281208 0.00024540766 0.00028294107
0.00041798933 0.0011205898 0.0003779802 -0.00023532132 -0.00027999404 -0.00041295408 -0.00013076769 -0.00016068788
0.0015202815 0.00024580624 2.9420142e-05 0.0010024578 0.0010315572 -2.6387139e-05 -0.00022614095 0.001277537
0.00047495906 0.00012568996 0.0001788528 -0.00017783484 -8.193921e-05 -0.0003067275 -3.946673e-05 0.000634564
0.00062540453 0.00070180197 0.0008700304 -0.0004920367 -0.00033625626 -0.0005361764 0.0018033371 0.00068759394
-0.00044818246 0.00015774388 -3.95723e-05 0.00010319308 -0.00033649837 -0.0007283501 -0.00028890395 -0.0001802748
0.00042364752 0.00028278254 -0.00016452152 -0.0005172929 -0.0010160614 -2.0306102e-06 0.00069852115 3.0742496e-05
-0.0005101276 0.00044285535 0.0006297173 -0.00060082204 9.12066e-05 -0.000424561 -0.00023647568 -0.00018966445
-0.00062273635 -0.00048761079 -0.0007335207 -0.00077472936 -5.5549554e-05 -0.00012691648 0.0003206025 0.00026636067
0.0007065755 -0.0010015778 -0.00018176893 -0.0001696017 0.0014879475 -2.1987815e-05 -0.00093417754 -0.0005441646
-0.00017921504 0.0004260971 -0.0013438555 0.00025427356 0.0002997778 0.00031551498 -0.00033203827 0.00027848486
-0.00021958855 -0.0005843241 -0.0004396858 0.0009927502 -0.0006103738 5.485718e-05 0.00066902384 0.0002651074
-0.00048324923 0.00018581172 -5.3601274e-05 -0.0005034529 -0.00019354688 0.00049597584 0.0006969503 0.00029844308
-0.00033386511 -0.00013588155 0.00017829778 0.0008245043 0.0014843701 -0.000566959 9.440678e-05 0.00011957309
0.00016058977 0.00020233072 0.00040658956 -0.00011974927 0.00029332607 -0.00070260454 0.00034920697 -0.00047110222
-0.0007846632 -0.0012096594 -0.0007321331 -0.0003404448 7.46231e-05 5.5761484e-05 -0.00048944604 4.7041973e-05
-0.00046696907 -0.00053007854 0.0007724323 0.00015818431 2.6873036e-05 0.00017939204 0.0014097722 0.00035934732
-0.00055643247 0.00018005201 0.00055395364 9.41878e-05 0.0005535893 0.00014615947 0.0007138226 -0.00028495677
0.00043132523 -0.00021952062 0.00047385928 0.0006849044 -0.00056271255 0.00044446086 0.0006424346 0.00021864446
-0.0004192937 -0.0008569322 -0.00024266372 -0.0006230368 -6.3748084e-05 -0.00015980926 0.0016619695 0.00075618236
0.0012627025 0.00010835632 -0.00026651856 -1.3240559e-06 0.00057156815 0.0014148493 5.125254e-05 0.0008885718
00000000: 8311 d339 e46c beb9 10a1 e037 e23c 9838
00000010: 7c41 73ba 0545 3d3a 3674 f2b8 3ccf 1bb9
00000020: 0c3f 1bba e994 d6b9 bdf0 95ba 74be 1eba
00000030: 07ee 14b7 159c 3c3a a61c a63a 3911 c639
00000040: 979f 9739 239c ddb9 afae c8b9 e101 3139
00000050: 7b05 07ba 4a34 eb39 0c64 dd38 f18c 293a
00000060: b7a4 d7b8 79e8 49ba 4532 9e3a 1a86 433a
00000070: 9e86 4d3a 46b1 9138 03c1 1aba 8fdd c438
00000080: f4fa 1cb9 253c 3039 48c2 e736 12de 0339
00000090: 826d 17b9 a257 c6b9 5874 41ba 66d8 7939
000000a0: 9583 1aba 04a6 8e38 2835 2337 7c94 d2b9
000000b0: ba35 8839 0478 10ba ff6b 823a 0283 ebb7
000000c0: e0b8 c639 028d 06ba 16b9 deb9 363f 3d3b
000000d0: 7689 9e38 490c 42b9 554b 04ba 00a8 a53a
000000e0: dc85 cfb9 48f0 32ba cab5 153a 5a9a 49ba
000000f0: cb7d 8bb9 3208 4139 cfbe 9d39 8699 403a
00000100: b5ff 14b9 50a6 e1b7 4ba0 14ba 5128 ec39
00000110: 4cdc 1a3a 5a53 05ba d4a2 fbb9 d360 503a
00000120: 939b 6138 c800 0734 f715 2bba 02d4 c1b8
00000130: 3dc4 49ba 6d67 123a 3004 19ba 2223 983a
00000140: a470 5d38 ad00 4db9 b600 43b9 a1de 9fb9
00000150: 3413 40ba 89d8 b2ba fc3a 423a 9b2f a739
00000160: e0c7 50ba 441a 433a dc8c 9c35 e079 8138
00000170: daa9 333b c0c2 9e39 0faa 8039 b557 9439
00000180: 9425 db39 c1e0 923a a52b c639 96c0 76b9
00000190: 2acc 92b9 c281 d8b9 af1e 09b9 537e 28b9
000001a0: 2f44 c73a 8edf 8039 46cb f637 e764 833a
000001b0: 5135 873a f359 ddb7 4020 6db9 0773 a73a
000001c0: ed03 f939 a4cb 0339 6f8a 3b39 2d79 3ab9
000001d0: c7d6 abb8 45d0 a0b9 1489 25b8 df58 263a
000001e0: 30f2 233a 22f9 373a c012 643a 06fc 00ba
000001f0: 8d4b b0b9 308e 0cba f45d ec3a a63f 343a
00000200: 08fa eab9 0d68 2539 6ffa 25b8 5d69 d838
00000210: 0c6c b0b9 bfee 3eba 0878 97b9 2608 3db9
00000220: 021d de39 6e42 9439 6983 2cb9 f09a 07ba
00000230: 5d2d 85ba 9e45 08b6 f61c 373a 81f1 0038
00000240: 15ba 05ba 0a2f e839 9d13 253a 7c80 1dba
00000250: 2c46 bf38 9d97 deb9 75f6 77b9 aae0 46b9
00000260: 213f 23ba 03a6 ffb9 be49 40ba 3517 4bba
00000270: e1fd 68b8 e214 05b9 8a16 a839 53a6 8b39
00000280: 7b39 393a 6047 83ba 3a99 3eb9 1cd7 31b9
00000290: 3c07 c33a 7972 b8b7 98e3 74ba 45a6 0eba
000002a0: aceb 3bb9 c965 df39 4f24 b0ba 0550 8539
000002b0: 7f2b 9d39 b46b a539 6c15 aeb9 9b01 9239
000002c0: 5a41 66b9 542d 19ba a185 e6b9 2b1f 823a
000002d0: 7e01 20ba 7316 6638 6e61 2f3a 1dfe 8a39
000002e0: 9d5c fdb9 74d6 4239 eed1 60b8 27fa 03ba
000002f0: d8f2 4ab9 6004 023a 8bb3 363a 5a78 9c39
00000300: 9e0a afb9 6d7b 0eb9 72f5 3a39 8c23 583a
00000310: 328f c23a f99f 14ba 41fc c538 50c3 fa38
00000320: fd63 2839 bd28 5439 872b d539 e621 fbb8
00000330: 8fc9 9939 fe2e 38ba c415 b739 45fe f6b9
00000340: dbb1 4dba 6f8d 9eba 9fec 3fba ba7d b2b9
00000350: f97e 9c38 70e1 6938 2b4e 00ba ef4e 4538
00000360: 87d3 f4b9 f8f4 0aba 0e7d 4a3a 47de 2539
00000370: 686d e137 2f1b 3c39 1bc8 b83a c866 bc39
00000380: 8ddd 11ba 58cc 3c39 3337 113a b186 c538
00000390: c01e 113a 6242 1939 d31f 3b3a 4066 95b9
000003a0: 7e23 e239 1e2f 66b9 5170 f839 288b 333a
000003b0: 0083 13ba 8706 e939 0e69 283a ed43 6539
000003c0: a6d4 dbb9 bfa3 60ba 8c73 7eb9 4b53 23ba
000003d0: 7eb0 85b8 7992 27b9 71d6 d93a 8a3a 463a
000003e0: 4481 a53a 5b3d e338 84bb 8bb9 37b6 b1b5
000003f0: 4ad5 153a 7772 b93a fff7 5638 0bef 683a

bn2.running_mean f4 [500]
-0.07280914 -0.12645026 -0.13474798 -0.07030507 0.020705098 -0.24390759 0.094348796 -0.2769837
-0.16905832 -0.08452992 -0.2704982 0.04108913 0.071275935 -0.18566473 0.23861419 0.27378237
-0.037428413 -0.22360927 0.31326038 0.135203 -0.359535 -0.346432 -0.1549306 0.04185227
0.24620105 0.19483328 0.28812158 0.29362324 0.16312084 0.1484836 0.13249487 -0.25332195
0.024607386 0.032968268 0.20502864 0.4490259 -0.2169138 0.29693493 0.28878483 -0.122126274
0.12883754 -0.3152514 0.2971871 -0.38411927 -0.20209207 0.32762325 -0.021990193 -0.04675069
0.29557845 -0.13864516 0.12908648 0.06808235 0.24772696 -0.28079256 0.35553503 0.15120123
-0.11143019 0.099763036 -0.06397469 0.19990744 0.19511388 -0.011655893 0.22681543 -0.22241423
0.106266335 0.081944235 -0.19607593 -0.03213967 -0.12328534 0.048105046 0.008705791 0.083267905
0.19262502 0.31747046 -0.17042516 -0.11587922 -0.27080283 -0.23947585 -0.026013713 -0.23435517
-0.12955092 -0.22892642 -0.44555435 -0.040647335 -0.13766418 0.021190947 0.501205 0.3243021
-0.1219526 -0.45628297 0.017591516 0.09469421 -0.52650917 0.22272329 -0.020893702 -0.069603786
-0.10761575 0.21012074 0.08108748 -0.28194878 -0.02698979 -0.0384689 -0.053776994 0.03730901
0.16768028 0.43439704 -0.08183041 0.3191289 -0.34911117 -0.15831245 -0.15559378 -0.26961854
-0.37713155 -0.042653434 -0.17323048 0.50363994 -0.023680758 -0.17231944 0.23067683 0.2477938
-0.10853318 -0.023559054 -0.02582033 -0.10144695 -0.04802388 -0.1339569 0.212661 -0.23165004
-0.24166547 0.04608181 0.23498777 0.14994274 -0.13585514 -0.03355468 0.059861608 0.008605845
0.47094592 -0.19164728 0.16264723 0.26455522 -0.21490106 0.100941055 -0.22932084 -0.06823514
-0.062160272 -0.14139903 0.035687283 -0.012249189 0.16191646 0.07320295 -0.16077782 0.12735063
-0.003574699 -0.12817465 0.16319114 0.53779244 -0.20100045 0.10926103 0.19930574 0.23923777
-0.0412228 -0.18113385 0.2284685 -0.21451789 -0.020108428 -0.38237283 0.076542266 -0.036849108
0.07613797 -0.11374171 -0.14919369 0.06835897 0.24723013 0.21492094 -0.36849594 0.23244461
0.3372393 -0.16286452 0.09705943 -0.34555218 0.29802755 0.2683673 0.27450782 0.31125408
0.2544585 0.11678665 0.3614247 -0.37554935 -0.10983762 0.0050499095 -0.038588386 -0.13631918
0.0068002827 0.053173102 -0.20089565 0.19897489 -0.114959866 -0.8272028 0.063106306 -0.32329944
0.50807476 0.21504764 0.047037967 -0.13306634 -0.3574501 -0.2559389 -0.073329106 -0.2094482
-0.11511406 0.04355815 0.23426563 0.021854674 -0.09390502 0.20665985 0.05676612 0.24706557
-0.10272674 0.34903905 -0.09093145 0.21561562 -0.014907915 -0.2600459 -0.13736233 -0.6264507
0.0020599333 0.04238129 0.26932013 -0.21037313 0.12152463 0.048417043 -0.123079285 0.23273511
-0.060876932 -0.22923715 -0.026382808 -0.20446347 0.21485497 -0.4463159 -0.022352455 0.0029650284
0.05791948 0.10084835 -0.055162817 -0.21844688 0.27555788 0.08902185 -0.14474612 -0.1646625
0.026242875 0.27298248 -0.3107338 -0.52442306 0.18665409 -0.04367609 -0.00877913 -0.058963303
00000000: f51c 95bd 2d7c 01be 60fb 09be 1bfc 8fbd
00000010: bd9d a93c e9c2 79be f139 c13d cfd0 8dbe
00000020: a01d 2dbe 061e adbd bd7e 8abe 134d 283d
00000030: 1ef9 913d e51e 3ebe 4757 743e 342d 8c3e
00000040: 894e 19bd d4f9 64be aa63 a03e a872 0a3e
00000050: f914 b8be 895f b1be 21a6 1ebe 496d 2b3d
00000060: 211c 7c3e 6082 473e ac84 933e c955 963e
00000070: 2609 273e 160c 183e bcac 073e 6ab3 81be
00000080: 6e95 c93c bc09 073d 07f3 513e b9e6 e53e
00000090: a71e 5ebe db07 983e 9bdb 933e 571d fabd
000000a0: fded 033e a268 a1be e828 983e 48ab c4be
000000b0: 39f1 4ebe 3cbe a73e c724 b4bc a77d 3fbd
000000c0: 0f56 973e fff8 0dbe 3f2f 043e c26e 8b3d
000000d0: 23ac 7d3e 0bc4 8fbe b008 b63e 7fd4 1a3e
000000e0: 8335 e4bd 9050 cc3d 2a05 83bd 89b4 4c3e
000000f0: efcb 473e 5cf8 3ebc 4e42 683e 8ec0 63be
00000100: 2aa2 d93d 61d2 a73d 21c8 48be e3a4 03bd
00000110: 067d fcbd cc09 453d bca2 0e3c 5d88 aa3d
00000120: 7e3f 453e 7d8b a23e ef83 2ebe 1652 edbd
00000130: aba6 8abe 2839 75be b61a d5bc cdfa 6fbe
00000140: ffa8 04be b06b 6abe b31f e4be d27d 26bd
00000150: d7f7 0cbe a398 ad3c f94e 003f ed0a a63e
00000160: 49c2 f9bd ec9d e9be 151c 903c 0aef c13d
00000170: 4ec9 06bf 9311 643e 4529 abbc 6e8c 8ebd
00000180: a565 dcbd e429 573e 3111 a63d 975b 90be
00000190: b119 ddbc 9191 1dbd 4445 5cbd 55d1 183d
000001a0: 61b4 2b3e 4a69 de3e b496 a7bd dd64 a33e
000001b0: b3be b2be a91c 22be fa53 1fbe 710b 8abe
000001c0: 6317 c1be 5eb5 2ebd 5563 31be 8cee 003f
000001d0: 26fe c1bc 8274 30be 8c36 6c3e a8bd 7d3e
000001e0: a546 debd ebfe c0bc 2885 d3bc 6bc3 cfbd
000001f0: b0b4 44bd ff2b 09be cec3 593e ab35 6dbe
00000200: 2777 77be 48c0 3c3d a2a0 703e 978a 193e
00000210: 9c1d 0bbe a270 09bd 7231 753d 88ff 0c3c
00000220: d31f f13e 2f3f 44be ff8c 263e c873 873e
00000230: 060f 5cbe 2fba ce3d 15d3 6abe ddbe 8bbd
00000240: c59b 7ebd e8ca 10be d42c 123d d3b0 48bc
00000250: 6ecd 253e 6eeb 953d f1a2 24be 3468 023e
00000260: 7f45 6abb 3740 03be 941b 273e c4ac 093f
00000270: 10d3 4dbe 3fc4 df3d ce16 4c3e bffa 743e
00000280: 3dd9 28bd 277b 39be a5f3 693e 94aa 5bbe
00000290: 6eba a4bc 5fc6 c3be 31c2 9c3d 17ef 16bd
000002a0: 39ee 9b3d 6af1 e8bd 3bc6 18be caff 8b3d
000002b0: e529 7d3e 3c14 5c3e 80ab bcbe f605 6e3e
000002c0: a1aa ac3e f5c5 26be 18c7 c63d 37ec b0be
000002d0: 1197 983e 7067 893e 4a8c 8c3e b25c 9f3e
000002e0: 6248 823e d72d ef3d a90c b93e 0148 c0be
000002f0: 8cf2 e0bd b679 a53b db0e 1ebd 4197 0bbe
00000300: e8d4 de3b 0acc 593d 97b7 4dbe 13c0 4b3e
00000310: 1470 ebbd 90c3 53bf e13d 813d 8187 a5be
00000320: 3011 023f 7335 5c3e e2aa 403d 8b42 08be
00000330: b303 b7be 6c0a 83be 922d 96bd 9779 56be
00000340: ecc0 ebbd 086a 323d 54e3 6f3e 9308 b33c
00000350: 4651 c0bd a49e 533e 9783 683d c2fe 7c3e
00000360: 6662 d2bd 3fb5 b23e 453a babd 57ca 5c3e
00000370: 5440 74bc bc24 85be b6a8 0cbe 135f 20bf
00000380: f2ff 063b 0198 2d3d 54e4 893e 0e6c 57be
00000390: e8e1 f83d f350 463d fe10 fcbd 1d52 6e3e
000003a0: 175a 79bd 25bd 6abe c220 d8bc df5e 51be
000003b0: f102 5c3e 8583 e4be 7f1c b7bc ec50 423b
000003c0: fa3c 6d3d 9489 ce3d 68f2 61bd 8ab0 5fbe
000003d0: ec15 8d3e 1651 b63d 5438 14be 499d 28be
000003e0: 4cfb d63c 5cc4 8b3e 8018 9fbe 9740 06bf
000003f0: 4022 3f3e b3e5 32bd 57d6 0fbc 8183 71bd
